64*8 1/6 ->(4,4) tcn=8/2
head: 4
iter: 2
snr: 10
SETRModel(
  (encoder_2d): Encoder2D(
    (bert_model): TransModel2d(
      (dense): InputDense2d(
        (dense): Linear(in_features=96, out_features=256, bias=True)
        (LayerNorm): TransLayerNorm()
      )
      (embeddings): TransEmbeddings(
        (position_embeddings): Embedding(64, 256)
        (LayerNorm): TransLayerNorm()
        (dropout): Dropout(p=0.1, inplace=False)
      )
      (encoder): TransEncoder(
        (layer): ModuleList(
          (0): TransLayer(
            (attention): TransAttention(
              (self): TransSelfAttention(
                (query): Linear(in_features=256, out_features=256, bias=True)
                (key): Linear(in_features=256, out_features=256, bias=True)
                (value): Linear(in_features=256, out_features=256, bias=True)
                (dropout): Dropout(p=0.1, inplace=False)
              )
              (output): TransSelfOutput(
                (dense): Linear(in_features=256, out_features=256, bias=True)
                (LayerNorm): TransLayerNorm()
                (dropout): Dropout(p=0.1, inplace=False)
              )
            )
            (intermediate): TransIntermediate(
              (dense): Linear(in_features=256, out_features=1024, bias=True)
            )
            (output): TransOutput(
              (dense): Linear(in_features=1024, out_features=256, bias=True)
              (LayerNorm): TransLayerNorm()
              (dropout): Dropout(p=0.1, inplace=False)
            )
          )
          (1): TransLayer(
            (attention): TransAttention(
              (self): TransSelfAttention(
                (query): Linear(in_features=256, out_features=256, bias=True)
                (key): Linear(in_features=256, out_features=256, bias=True)
                (value): Linear(in_features=256, out_features=256, bias=True)
                (dropout): Dropout(p=0.1, inplace=False)
              )
              (output): TransSelfOutput(
                (dense): Linear(in_features=256, out_features=256, bias=True)
                (LayerNorm): TransLayerNorm()
                (dropout): Dropout(p=0.1, inplace=False)
              )
            )
            (intermediate): TransIntermediate(
              (dense): Linear(in_features=256, out_features=1024, bias=True)
            )
            (output): TransOutput(
              (dense): Linear(in_features=1024, out_features=256, bias=True)
              (LayerNorm): TransLayerNorm()
              (dropout): Dropout(p=0.1, inplace=False)
            )
          )
          (2): TransLayer(
            (attention): TransAttention(
              (self): TransSelfAttention(
                (query): Linear(in_features=256, out_features=256, bias=True)
                (key): Linear(in_features=256, out_features=256, bias=True)
                (value): Linear(in_features=256, out_features=256, bias=True)
                (dropout): Dropout(p=0.1, inplace=False)
              )
              (output): TransSelfOutput(
                (dense): Linear(in_features=256, out_features=256, bias=True)
                (LayerNorm): TransLayerNorm()
                (dropout): Dropout(p=0.1, inplace=False)
              )
            )
            (intermediate): TransIntermediate(
              (dense): Linear(in_features=256, out_features=1024, bias=True)
            )
            (output): TransOutput(
              (dense): Linear(in_features=1024, out_features=256, bias=True)
              (LayerNorm): TransLayerNorm()
              (dropout): Dropout(p=0.1, inplace=False)
            )
          )
          (3): TransLayer(
            (attention): TransAttention(
              (self): TransSelfAttention(
                (query): Linear(in_features=256, out_features=256, bias=True)
                (key): Linear(in_features=256, out_features=256, bias=True)
                (value): Linear(in_features=256, out_features=256, bias=True)
                (dropout): Dropout(p=0.1, inplace=False)
              )
              (output): TransSelfOutput(
                (dense): Linear(in_features=256, out_features=256, bias=True)
                (LayerNorm): TransLayerNorm()
                (dropout): Dropout(p=0.1, inplace=False)
              )
            )
            (intermediate): TransIntermediate(
              (dense): Linear(in_features=256, out_features=1024, bias=True)
            )
            (output): TransOutput(
              (dense): Linear(in_features=1024, out_features=256, bias=True)
              (LayerNorm): TransLayerNorm()
              (dropout): Dropout(p=0.1, inplace=False)
            )
          )
        )
      )
    )
    (final_dense): Linear(in_features=256, out_features=4, bias=True)
  )
  (decoder_tran): Decoder2D_trans(
    (bert_model): ReciverModel2d(
      (dense): Decoder_Dense2d(
        (dense): Linear(in_features=8, out_features=256, bias=True)
        (LayerNorm): TransLayerNorm()
      )
      (embeddings): TransEmbeddings(
        (position_embeddings): Embedding(64, 256)
        (LayerNorm): TransLayerNorm()
        (dropout): Dropout(p=0.1, inplace=False)
      )
      (encoder): TransEncoder(
        (layer): ModuleList(
          (0): TransLayer(
            (attention): TransAttention(
              (self): TransSelfAttention(
                (query): Linear(in_features=256, out_features=256, bias=True)
                (key): Linear(in_features=256, out_features=256, bias=True)
                (value): Linear(in_features=256, out_features=256, bias=True)
                (dropout): Dropout(p=0.1, inplace=False)
              )
              (output): TransSelfOutput(
                (dense): Linear(in_features=256, out_features=256, bias=True)
                (LayerNorm): TransLayerNorm()
                (dropout): Dropout(p=0.1, inplace=False)
              )
            )
            (intermediate): TransIntermediate(
              (dense): Linear(in_features=256, out_features=1024, bias=True)
            )
            (output): TransOutput(
              (dense): Linear(in_features=1024, out_features=256, bias=True)
              (LayerNorm): TransLayerNorm()
              (dropout): Dropout(p=0.1, inplace=False)
            )
          )
          (1): TransLayer(
            (attention): TransAttention(
              (self): TransSelfAttention(
                (query): Linear(in_features=256, out_features=256, bias=True)
                (key): Linear(in_features=256, out_features=256, bias=True)
                (value): Linear(in_features=256, out_features=256, bias=True)
                (dropout): Dropout(p=0.1, inplace=False)
              )
              (output): TransSelfOutput(
                (dense): Linear(in_features=256, out_features=256, bias=True)
                (LayerNorm): TransLayerNorm()
                (dropout): Dropout(p=0.1, inplace=False)
              )
            )
            (intermediate): TransIntermediate(
              (dense): Linear(in_features=256, out_features=1024, bias=True)
            )
            (output): TransOutput(
              (dense): Linear(in_features=1024, out_features=256, bias=True)
              (LayerNorm): TransLayerNorm()
              (dropout): Dropout(p=0.1, inplace=False)
            )
          )
          (2): TransLayer(
            (attention): TransAttention(
              (self): TransSelfAttention(
                (query): Linear(in_features=256, out_features=256, bias=True)
                (key): Linear(in_features=256, out_features=256, bias=True)
                (value): Linear(in_features=256, out_features=256, bias=True)
                (dropout): Dropout(p=0.1, inplace=False)
              )
              (output): TransSelfOutput(
                (dense): Linear(in_features=256, out_features=256, bias=True)
                (LayerNorm): TransLayerNorm()
                (dropout): Dropout(p=0.1, inplace=False)
              )
            )
            (intermediate): TransIntermediate(
              (dense): Linear(in_features=256, out_features=1024, bias=True)
            )
            (output): TransOutput(
              (dense): Linear(in_features=1024, out_features=256, bias=True)
              (LayerNorm): TransLayerNorm()
              (dropout): Dropout(p=0.1, inplace=False)
            )
          )
          (3): TransLayer(
            (attention): TransAttention(
              (self): TransSelfAttention(
                (query): Linear(in_features=256, out_features=256, bias=True)
                (key): Linear(in_features=256, out_features=256, bias=True)
                (value): Linear(in_features=256, out_features=256, bias=True)
                (dropout): Dropout(p=0.1, inplace=False)
              )
              (output): TransSelfOutput(
                (dense): Linear(in_features=256, out_features=256, bias=True)
                (LayerNorm): TransLayerNorm()
                (dropout): Dropout(p=0.1, inplace=False)
              )
            )
            (intermediate): TransIntermediate(
              (dense): Linear(in_features=256, out_features=1024, bias=True)
            )
            (output): TransOutput(
              (dense): Linear(in_features=1024, out_features=256, bias=True)
              (LayerNorm): TransLayerNorm()
              (dropout): Dropout(p=0.1, inplace=False)
            )
          )
        )
      )
    )
    (final_dense): Linear(in_features=256, out_features=48, bias=True)
  )
  (channel): Channel()
)
############## Train model SETR ,with SNR:  10  ##############
Files already downloaded and verified
Files already downloaded and verified
Epoch:[ 0 ] , loss :  0.050161259163323105
Epoch:[ 1 ] , loss :  0.01812027683196475
Epoch:[ 2 ] , loss :  0.010734010464036646
Epoch:[ 3 ] , loss :  0.008231112633698754
Epoch:[ 4 ] , loss :  0.006874880950650846
…
